

                 from  n    params  module                                  arguments
  0                -1  1      7040  models.common.Focus                     [3, 64, 3]
  1                -1  1     73984  models.common.Conv                      [64, 128, 3, 2]
  2                -1  1    161152  models.common.BottleneckCSP             [128, 128, 3]
  3                -1  1    295424  models.common.Conv                      [128, 256, 3, 2]
  4                -1  1   1627904  models.common.BottleneckCSP             [256, 256, 9]
  5                -1  1   1180672  models.common.Conv                      [256, 512, 3, 2]
  6                -1  1   6499840  models.common.BottleneckCSP             [512, 512, 9]
  7                -1  1   4720640  models.common.Conv                      [512, 1024, 3, 2]
  8                -1  1   2624512  models.common.SPP                       [1024, 1024, [5, 9, 13]]
  9                -1  1  10234880  models.common.BottleneckCSP             [1024, 1024, 3, False]
 10                -1  1    525312  models.common.Conv                      [1024, 512, 1, 1]
 11                -1  1         0  torch.nn.modules.upsampling.Upsample    [None, 2, 'nearest']
 12           [-1, 6]  1         0  models.common.Concat                    [1]
 13                -1  1   2823680  models.common.BottleneckCSP             [1024, 512, 3, False]
 14                -1  1    131584  models.common.Conv                      [512, 256, 1, 1]
 15                -1  1         0  torch.nn.modules.upsampling.Upsample    [None, 2, 'nearest']
 16           [-1, 4]  1         0  models.common.Concat                    [1]
 17                -1  1    707328  models.common.BottleneckCSP             [512, 256, 3, False]
 18                -1  1     65535  torch.nn.modules.conv.Conv2d            [256, 255, 1, 1]
 19                -2  1    590336  models.common.Conv                      [256, 256, 3, 2]
 20          [-1, 14]  1         0  models.common.Concat                    [1]
 21                -1  1   2561536  models.common.BottleneckCSP             [512, 512, 3, False]
 22                -1  1    130815  torch.nn.modules.conv.Conv2d            [512, 255, 1, 1]
 23                -2  1   2360320  models.common.Conv                      [512, 512, 3, 2]
 24          [-1, 10]  1         0  models.common.Concat                    [1]
 25                -1  1  10234880  models.common.BottleneckCSP             [1024, 1024, 3, False]
 26                -1  1    261375  torch.nn.modules.conv.Conv2d            [1024, 255, 1, 1]
 27      [-1, 22, 18]  1         0  Detect                                  [80, [[116, 90, 156, 198, 373, 326], [30, 61, 62, 45, 59, 119], [10, 13, 16, 30, 33, 23]]]
Model Summary: 335 layers, 4.78187e+07 parameters, 4.78187e+07 gradients


